…
Average actions of users: 8.876358270357287
The number of items: 12102
Average actions of items: 16.403768283612923
The number of inters: 198502
The sparsity of the dataset: 99.92665707018277%
Remain Fields: ['user_id', 'item_id', 'rating', 'timestamp', 'sales_rank', 'categories', 'price', 'brand']
Sat 09 Nov 2024 17:51:54 INFO  [Training]: train_batch_size = [256] negative sampling: [None]
Sat 09 Nov 2024 17:51:54 INFO  [Evaluation]: eval_batch_size = [512] eval_args: [{'split': {'LS': 'valid_and_test'}, 'order': 'TO', 'mode': 'pop100', 'group_by': 'user'}]
Sat 09 Nov 2024 17:51:55 INFO  MLP4Rec(
  (item_embedding): Embedding(12102, 128, padding_idx=0)
  (feature_embed_layer): FeatureSeqEmbLayer(
    (token_embedding_table): ModuleDict(
      (item): FMEmbedding(
        (embedding): Embedding(2077, 128)
      )
    )
    (float_embedding_table): ModuleDict(
      (item): Embedding(2, 128)
    )
    (token_seq_embedding_table): ModuleDict(
      (item): ModuleList(
        (0): Embedding(355, 128)
      )
    )
  )
  (sequenceMixer): PreNormResidual(
    (fn): Sequential(
      (0): Conv1d(50, 200, kernel_size=(1,), stride=(1,))
      (1): GELU(approximate='none')
      (2): Dropout(p=0.5, inplace=False)
      (3): Conv1d(200, 50, kernel_size=(1,), stride=(1,))
      (4): Dropout(p=0.5, inplace=False)
    )
    (norm): LayerNorm((128,), eps=1e-05, elementwise_affine=True)
  )
  (channelMixer): PreNormResidual(
    (fn): Sequential(
      (0): Linear(in_features=128, out_features=512, bias=True)
      (1): GELU(approximate='none')
      (2): Dropout(p=0.5, inplace=False)
      (3): Linear(in_features=512, out_features=128, bias=True)
      (4): Dropout(p=0.5, inplace=False)
    )
    (norm): LayerNorm((128,), eps=1e-05, elementwise_affine=True)
  )
  (featureMixer): PreNormResidual(
    (fn): Sequential(
      (0): Conv1d(5, 20, kernel_size=(1,), stride=(1,))
      (1): GELU(approximate='none')
      (2): Dropout(p=0.5, inplace=False)
      (3): Conv1d(20, 5, kernel_size=(1,), stride=(1,))
      (4): Dropout(p=0.5, inplace=False)
    )
    (norm): LayerNorm((128,), eps=1e-05, elementwise_affine=True)
  )
  (layers): ModuleList(
    (0): PreNormResidual(
      (fn): Sequential(
        (0): Conv1d(50, 200, kernel_size=(1,), stride=(1,))
        (1): GELU(approximate='none')
        (2): Dropout(p=0.5, inplace=False)
        (3): Conv1d(200, 50, kernel_size=(1,), stride=(1,))
        (4): Dropout(p=0.5, inplace=False)
      )
      (norm): LayerNorm((128,), eps=1e-05, elementwise_affine=True)
    )
    (1): PreNormResidual(
      (fn): Sequential(
        (0): Linear(in_features=128, out_features=512, bias=True)
        (1): GELU(approximate='none')
        (2): Dropout(p=0.5, inplace=False)
        (3): Linear(in_features=512, out_features=128, bias=True)
        (4): Dropout(p=0.5, inplace=False)
      )
      (norm): LayerNorm((128,), eps=1e-05, elementwise_affine=True)
    )
    (2): PreNormResidual(
      (fn): Sequential(
        (0): Conv1d(50, 200, kernel_size=(1,), stride=(1,))
        (1): GELU(approximate='none')
        (2): Dropout(p=0.5, inplace=False)
        (3): Conv1d(200, 50, kernel_size=(1,), stride=(1,))
        (4): Dropout(p=0.5, inplace=False)
      )
      (norm): LayerNorm((128,), eps=1e-05, elementwise_affine=True)
    )
    (3): PreNormResidual(
      (fn): Sequential(
        (0): Linear(in_features=128, out_features=512, bias=True)
        (1): GELU(approximate='none')
        (2): Dropout(p=0.5, inplace=False)
        (3): Linear(in_features=512, out_features=128, bias=True)
        (4): Dropout(p=0.5, inplace=False)
      )
      (norm): LayerNorm((128,), eps=1e-05, elementwise_affine=True)
    )
    (4): PreNormResidual(
      (fn): Sequential(
        (0): Conv1d(50, 200, kernel_size=(1,), stride=(1,))
        (1): GELU(approximate='none')
        (2): Dropout(p=0.5, inplace=False)
        (3): Conv1d(200, 50, kernel_size=(1,), stride=(1,))
        (4): Dropout(p=0.5, inplace=False)
      )
      (norm): LayerNorm((128,), eps=1e-05, elementwise_affine=True)
    )
    (5): PreNormResidual(
      (fn): Sequential(
        (0): Linear(in_features=128, out_features=512, bias=True)
        (1): GELU(approximate='none')
        (2): Dropout(p=0.5, inplace=False)
        (3): Linear(in_features=512, out_features=128, bias=True)
        (4): Dropout(p=0.5, inplace=False)
      )
      (norm): LayerNorm((128,), eps=1e-05, elementwise_affine=True)
    )
    (6): PreNormResidual(
      (fn): Sequential(
        (0): Conv1d(50, 200, kernel_size=(1,), stride=(1,))
        (1): GELU(approximate='none')
        (2): Dropout(p=0.5, inplace=False)
        (3): Conv1d(200, 50, kernel_size=(1,), stride=(1,))
        (4): Dropout(p=0.5, inplace=False)
      )
      (norm): LayerNorm((128,), eps=1e-05, elementwise_affine=True)
    )
    (7): PreNormResidual(
      (fn): Sequential(
        (0): Linear(in_features=128, out_features=512, bias=True)
        (1): GELU(approximate='none')
        (2): Dropout(p=0.5, inplace=False)
        (3): Linear(in_features=512, out_features=128, bias=True)
        (4): Dropout(p=0.5, inplace=False)
      )
      (norm): LayerNorm((128,), eps=1e-05, elementwise_affine=True)
    )
    (8): PreNormResidual(
      (fn): Sequential(
        (0): Conv1d(50, 200, kernel_size=(1,), stride=(1,))
        (1): GELU(approximate='none')
        (2): Dropout(p=0.5, inplace=False)
        (3): Conv1d(200, 50, kernel_size=(1,), stride=(1,))
        (4): Dropout(p=0.5, inplace=False)
      )
      (norm): LayerNorm((128,), eps=1e-05, elementwise_affine=True)
    )
    (9): PreNormResidual(
      (fn): Sequential(
        (0): Linear(in_features=128, out_features=512, bias=True)
        (1): GELU(approximate='none')
        (2): Dropout(p=0.5, inplace=False)
        (3): Linear(in_features=512, out_features=128, bias=True)
        (4): Dropout(p=0.5, inplace=False)
      )
      (norm): LayerNorm((128,), eps=1e-05, elementwise_affine=True)
    )
  )
  (LayerNorm): LayerNorm((128,), eps=1e-12, elementwise_affine=True)
  (dropout): Dropout(p=0.5, inplace=False)
  (loss_fct): CrossEntropyLoss()
)
Trainable parameters: 2013819
Sat 09 Nov 2024 17:56:21 INFO  epoch 0 training [time: 265.48s, train loss: 4760.7111]
Sat 09 Nov 2024 18:03:46 INFO  epoch 0 evaluating [time: 445.58s, valid_score: 0.027800]
Sat 09 Nov 2024 18:03:46 INFO  valid result: 
recall@10 : 0.0809    mrr@10 : 0.0278    ndcg@10 : 0.04    hit@10 : 0.0809    precision@10 : 0.0081
…
