…
Average actions of users: 105.28844114528101
The number of items: 1350
Average actions of items: 73.6004447739066
The number of inters: 99287
The sparsity of the dataset: 92.20911801632141%
Remain Fields: ['user_id', 'item_id', 'rating', 'timestamp', 'movie_title', 'release_year', 'class']
Sat 09 Nov 2024 17:50:06 INFO  [Training]: train_batch_size = [256] negative sampling: [None]
Sat 09 Nov 2024 17:50:06 INFO  [Evaluation]: eval_batch_size = [512] eval_args: [{'split': {'LS': 'valid_and_test'}, 'order': 'TO', 'mode': 'pop100', 'group_by': 'user'}]
Sat 09 Nov 2024 17:50:07 INFO  MLP4Rec(
  (item_embedding): Embedding(1350, 128, padding_idx=0)
  (feature_embed_layer): FeatureSeqEmbLayer(
    (token_embedding_table): ModuleDict(
      (item): FMEmbedding(
        (embedding): Embedding(73, 128)
      )
    )
    (float_embedding_table): ModuleDict()
    (token_seq_embedding_table): ModuleDict(
      (item): ModuleList(
        (0): Embedding(20, 128)
        (1): Embedding(2180, 128)
      )
    )
  )
  (sequenceMixer): PreNormResidual(
    (fn): Sequential(
      (0): Conv1d(50, 200, kernel_size=(1,), stride=(1,))
      (1): GELU(approximate='none')
      (2): Dropout(p=0.5, inplace=False)
      (3): Conv1d(200, 50, kernel_size=(1,), stride=(1,))
      (4): Dropout(p=0.5, inplace=False)
    )
    (norm): LayerNorm((128,), eps=1e-05, elementwise_affine=True)
  )
  (channelMixer): PreNormResidual(
    (fn): Sequential(
      (0): Linear(in_features=128, out_features=512, bias=True)
      (1): GELU(approximate='none')
      (2): Dropout(p=0.5, inplace=False)
      (3): Linear(in_features=512, out_features=128, bias=True)
      (4): Dropout(p=0.5, inplace=False)
    )
    (norm): LayerNorm((128,), eps=1e-05, elementwise_affine=True)
  )
  (featureMixer): PreNormResidual(
    (fn): Sequential(
      (0): Conv1d(4, 16, kernel_size=(1,), stride=(1,))
      (1): GELU(approximate='none')
      (2): Dropout(p=0.5, inplace=False)
      (3): Conv1d(16, 4, kernel_size=(1,), stride=(1,))
      (4): Dropout(p=0.5, inplace=False)
    )
    (norm): LayerNorm((128,), eps=1e-05, elementwise_affine=True)
  )
  (layers): ModuleList(
    (0): PreNormResidual(
      (fn): Sequential(
        (0): Conv1d(50, 200, kernel_size=(1,), stride=(1,))
        (1): GELU(approximate='none')
        (2): Dropout(p=0.5, inplace=False)
        (3): Conv1d(200, 50, kernel_size=(1,), stride=(1,))
        (4): Dropout(p=0.5, inplace=False)
      )
      (norm): LayerNorm((128,), eps=1e-05, elementwise_affine=True)
    )
    (1): PreNormResidual(
      (fn): Sequential(
        (0): Linear(in_features=128, out_features=512, bias=True)
        (1): GELU(approximate='none')
        (2): Dropout(p=0.5, inplace=False)
        (3): Linear(in_features=512, out_features=128, bias=True)
        (4): Dropout(p=0.5, inplace=False)
      )
      (norm): LayerNorm((128,), eps=1e-05, elementwise_affine=True)
    )
    (2): PreNormResidual(
      (fn): Sequential(
        (0): Conv1d(50, 200, kernel_size=(1,), stride=(1,))
        (1): GELU(approximate='none')
        (2): Dropout(p=0.5, inplace=False)
        (3): Conv1d(200, 50, kernel_size=(1,), stride=(1,))
        (4): Dropout(p=0.5, inplace=False)
      )
      (norm): LayerNorm((128,), eps=1e-05, elementwise_affine=True)
    )
    (3): PreNormResidual(
      (fn): Sequential(
        (0): Linear(in_features=128, out_features=512, bias=True)
        (1): GELU(approximate='none')
        (2): Dropout(p=0.5, inplace=False)
        (3): Linear(in_features=512, out_features=128, bias=True)
        (4): Dropout(p=0.5, inplace=False)
      )
      (norm): LayerNorm((128,), eps=1e-05, elementwise_affine=True)
    )
    (4): PreNormResidual(
      (fn): Sequential(
        (0): Conv1d(50, 200, kernel_size=(1,), stride=(1,))
        (1): GELU(approximate='none')
        (2): Dropout(p=0.5, inplace=False)
        (3): Conv1d(200, 50, kernel_size=(1,), stride=(1,))
        (4): Dropout(p=0.5, inplace=False)
      )
      (norm): LayerNorm((128,), eps=1e-05, elementwise_affine=True)
    )
    (5): PreNormResidual(
      (fn): Sequential(
        (0): Linear(in_features=128, out_features=512, bias=True)
        (1): GELU(approximate='none')
        (2): Dropout(p=0.5, inplace=False)
        (3): Linear(in_features=512, out_features=128, bias=True)
        (4): Dropout(p=0.5, inplace=False)
      )
      (norm): LayerNorm((128,), eps=1e-05, elementwise_affine=True)
    )
    (6): PreNormResidual(
      (fn): Sequential(
        (0): Conv1d(50, 200, kernel_size=(1,), stride=(1,))
        (1): GELU(approximate='none')
        (2): Dropout(p=0.5, inplace=False)
        (3): Conv1d(200, 50, kernel_size=(1,), stride=(1,))
        (4): Dropout(p=0.5, inplace=False)
      )
      (norm): LayerNorm((128,), eps=1e-05, elementwise_affine=True)
    )
    (7): PreNormResidual(
      (fn): Sequential(
        (0): Linear(in_features=128, out_features=512, bias=True)
        (1): GELU(approximate='none')
        (2): Dropout(p=0.5, inplace=False)
        (3): Linear(in_features=512, out_features=128, bias=True)
        (4): Dropout(p=0.5, inplace=False)
      )
      (norm): LayerNorm((128,), eps=1e-05, elementwise_affine=True)
    )
  )
  (LayerNorm): LayerNorm((128,), eps=1e-12, elementwise_affine=True)
  (dropout): Dropout(p=0.5, inplace=False)
  (loss_fct): CrossEntropyLoss()
)
Trainable parameters: 616878
Sat 09 Nov 2024 17:51:19 INFO  epoch 0 training [time: 71.38s, train loss: 2696.6438]
Sat 09 Nov 2024 17:51:30 INFO  epoch 0 evaluating [time: 11.40s, valid_score: 0.037400]
Sat 09 Nov 2024 17:51:30 INFO  valid result: 
recall@10 : 0.106    mrr@10 : 0.0374    ndcg@10 : 0.053    hit@10 : 0.106    precision@10 : 0.0106
…
